{"format": "layers-model", "generatedBy": "keras v2.4.0", "convertedBy": "TensorFlow.js Converter v3.6.0", "modelTopology": {"keras_version": "2.4.0", "backend": "tensorflow", "model_config": {"class_name": "Sequential", "config": {"name": "sequential", "layers": [{"class_name": "InputLayer", "config": {"batch_input_shape": [null, 99], "dtype": "float32", "sparse": false, "ragged": false, "name": "embedding_input"}}, {"class_name": "Embedding", "config": {"name": "embedding", "trainable": true, "batch_input_shape": [null, 99], "dtype": "float32", "input_dim": 10000, "output_dim": 50, "embeddings_initializer": {"class_name": "RandomUniform", "config": {"minval": -0.05, "maxval": 0.05, "seed": null}}, "embeddings_regularizer": null, "activity_regularizer": null, "embeddings_constraint": null, "mask_zero": false, "input_length": 99}}, {"class_name": "GRU", "config": {"name": "gru", "trainable": true, "dtype": "float32", "return_sequences": true, "return_state": false, "go_backwards": false, "stateful": false, "unroll": false, "time_major": false, "units": 99, "activation": "tanh", "recurrent_activation": "sigmoid", "use_bias": true, "kernel_initializer": {"class_name": "GlorotUniform", "config": {"seed": null}}, "recurrent_initializer": {"class_name": "Orthogonal", "config": {"gain": 1.0, "seed": null}}, "bias_initializer": {"class_name": "Zeros", "config": {}}, "kernel_regularizer": null, "recurrent_regularizer": null, "bias_regularizer": null, "activity_regularizer": null, "kernel_constraint": null, "recurrent_constraint": null, "bias_constraint": null, "dropout": 0.0, "recurrent_dropout": 0.0, "implementation": 2, "reset_after": false}}, {"class_name": "Dropout", "config": {"name": "dropout", "trainable": true, "dtype": "float32", "rate": 0.2, "noise_shape": null, "seed": null}}, {"class_name": "GRU", "config": {"name": "gru_1", "trainable": true, "dtype": "float32", "return_sequences": false, "return_state": false, "go_backwards": false, "stateful": false, "unroll": false, "time_major": false, "units": 99, "activation": "tanh", "recurrent_activation": "sigmoid", "use_bias": true, "kernel_initializer": {"class_name": "GlorotUniform", "config": {"seed": null}}, "recurrent_initializer": {"class_name": "Orthogonal", "config": {"gain": 1.0, "seed": null}}, "bias_initializer": {"class_name": "Zeros", "config": {}}, "kernel_regularizer": null, "recurrent_regularizer": null, "bias_regularizer": null, "activity_regularizer": null, "kernel_constraint": null, "recurrent_constraint": null, "bias_constraint": null, "dropout": 0.0, "recurrent_dropout": 0.0, "implementation": 2, "reset_after": false}}, {"class_name": "Dropout", "config": {"name": "dropout_1", "trainable": true, "dtype": "float32", "rate": 0.2, "noise_shape": null, "seed": null}}, {"class_name": "Dense", "config": {"name": "dense", "trainable": true, "dtype": "float32", "units": 500, "activation": "relu", "use_bias": true, "kernel_initializer": {"class_name": "GlorotUniform", "config": {"seed": null}}, "bias_initializer": {"class_name": "Zeros", "config": {}}, "kernel_regularizer": null, "bias_regularizer": null, "activity_regularizer": null, "kernel_constraint": null, "bias_constraint": null}}, {"class_name": "Dense", "config": {"name": "dense_1", "trainable": true, "dtype": "float32", "units": 10000, "activation": "softmax", "use_bias": true, "kernel_initializer": {"class_name": "GlorotUniform", "config": {"seed": null}}, "bias_initializer": {"class_name": "Zeros", "config": {}}, "kernel_regularizer": null, "bias_regularizer": null, "activity_regularizer": null, "kernel_constraint": null, "bias_constraint": null}}]}}, "training_config": {"loss": "categorical_crossentropy", "metrics": ["accuracy"], "weighted_metrics": null, "loss_weights": null, "optimizer_config": {"class_name": "Adam", "config": {"name": "Adam", "learning_rate": 0.001, "decay": 0.0, "beta_1": 0.9, "beta_2": 0.999, "epsilon": 1e-07, "amsgrad": false}}}}, "weightsManifest": [{"paths": ["group1-shard1of2.bin", "group1-shard2of2.bin"], "weights": [{"name": "dense/kernel", "shape": [99, 500], "dtype": "float32", "quantization": {"dtype": "uint8", "min": -1.4437195329105152, "scale": 0.011191624286128025, "original_dtype": "float32"}}, {"name": "dense/bias", "shape": [500], "dtype": "float32", "quantization": {"dtype": "uint8", "min": -1.4518688917160034, "scale": 0.005543722650584053, "original_dtype": "float32"}}, {"name": "dense_1/kernel", "shape": [500, 10000], "dtype": "float32", "quantization": {"dtype": "uint8", "min": -3.710967588424683, "scale": 0.017340970039367676, "original_dtype": "float32"}}, {"name": "dense_1/bias", "shape": [10000], "dtype": "float32", "quantization": {"dtype": "uint8", "min": -0.2921573891359217, "scale": 0.0020288707578883453, "original_dtype": "float32"}}, {"name": "embedding/embeddings", "shape": [10000, 50], "dtype": "float32", "quantization": {"dtype": "uint8", "min": -0.9602953679421369, "scale": 0.006908599769367891, "original_dtype": "float32"}}, {"name": "gru/gru_cell/kernel", "shape": [50, 297], "dtype": "float32", "quantization": {"dtype": "uint8", "min": -2.6101669096479228, "scale": 0.018778179206100164, "original_dtype": "float32"}}, {"name": "gru/gru_cell/recurrent_kernel", "shape": [99, 297], "dtype": "float32", "quantization": {"dtype": "uint8", "min": -1.2573283027200137, "scale": 0.009746731028837316, "original_dtype": "float32"}}, {"name": "gru/gru_cell/bias", "shape": [297], "dtype": "float32", "quantization": {"dtype": "uint8", "min": -1.4324887556188248, "scale": 0.0064526520523370485, "original_dtype": "float32"}}, {"name": "gru_1/gru_cell_1/kernel", "shape": [99, 297], "dtype": "float32", "quantization": {"dtype": "uint8", "min": -3.4019697974709904, "scale": 0.02429978426764993, "original_dtype": "float32"}}, {"name": "gru_1/gru_cell_1/recurrent_kernel", "shape": [99, 297], "dtype": "float32", "quantization": {"dtype": "uint8", "min": -1.2693784040563247, "scale": 0.009616503061032762, "original_dtype": "float32"}}, {"name": "gru_1/gru_cell_1/bias", "shape": [297], "dtype": "float32", "quantization": {"dtype": "uint8", "min": -1.3447465055129106, "scale": 0.009086125037249397, "original_dtype": "float32"}}]}]}